Found 596 images belonging to 6 classes.
Found 152 images belonging to 6 classes.
Model Summary:
Model: "sequential"
_________________________________________________________________
 Layer (type)                Output Shape              Param #   
=================================================================
 vgg16 (Functional)          (None, 4, 4, 512)         14714688  
                                                                 
 flatten (Flatten)           (None, 8192)              0         
                                                                 
 dense (Dense)               (None, 128)               1048704   
                                                                 
 dropout (Dropout)           (None, 128)               0         
                                                                 
 dense_1 (Dense)             (None, 6)                 774       
                                                                 
=================================================================
Total params: 15764166 (60.14 MB)
Trainable params: 1049478 (4.00 MB)
Non-trainable params: 14714688 (56.13 MB)
_________________________________________________________________
Starting training...
Epoch 1/20

 1/19 [>.............................] - ETA: 1:02 - loss: 3.2848 - accuracy: 0.1250
…
