Found 596 images belonging to 6 classes.
Found 152 images belonging to 6 classes.
Model Summary:
Model: "sequential"
_________________________________________________________________
 Layer (type)                Output Shape              Param #   
=================================================================
 conv2d (Conv2D)             (None, 126, 126, 32)      896       
                                                                 
 max_pooling2d (MaxPooling2  (None, 63, 63, 32)        0         
 D)                                                              
                                                                 
 conv2d_1 (Conv2D)           (None, 61, 61, 64)        18496     
                                                                 
 max_pooling2d_1 (MaxPoolin  (None, 30, 30, 64)        0         
 g2D)                                                            
                                                                 
 conv2d_2 (Conv2D)           (None, 28, 28, 128)       73856     
                                                                 
 max_pooling2d_2 (MaxPoolin  (None, 14, 14, 128)       0         
 g2D)                                                            
                                                                 
 flatten (Flatten)           (None, 25088)             0         
                                                                 
 dense (Dense)               (None, 128)               3211392   
                                                                 
 dropout (Dropout)           (None, 128)               0         
                                                                 
 dense_1 (Dense)             (None, 6)                 774       
                                                                 
=================================================================
Total params: 3305414 (12.61 MB)
Trainable params: 3305414 (12.61 MB)
Non-trainable params: 0 (0.00 Byte)
_________________________________________________________________
Starting training...
Epoch 1/20

 1/19 [>.............................] - ETA: 1:12 - loss: 1.8334 - accuracy: 0.0312
…
